…
 'adjust_lr': False, 'retrieve_lr_m1': 0.002, 'retrieve_lr_m2': 0.004, 'init_tf_rate': 1.0, 'tf_start_decay_epochs': 5, 'tf_decay_epochs': 10, 'tf_rate_lowerbound': 0.9, 'change_lr_epoch': None, 'lr_gamma': 0.5, 'epochs': 10, 'max_dec_timesteps': 30, 'max_grad_norm': 5, 'tag': 'style_transfer_proposed_regularize', 'm2_train_freq': 5, 'sample_num': 10, 'model_dir': './models/style_transfer_proposed_regularize', 'model_name': 'style_transfer', 'early_stop_start_epoch': 10, 'early_stop_patience': 5, 'test_file_name': './tests/proposed_regularize'}
DataParallel(
  (module): Encoder(
    (embedding): Embedding(60000, 100, padding_idx=0)
    (enc): ModuleList(
      (0): GRU(100, 64, batch_first=True, bidirectional=True)
      (1): GRU(128, 64, batch_first=True, bidirectional=True)
    )
  )
)
DataParallel(
  (module): Encoder(
    (embedding): Embedding(60000, 100, padding_idx=0)
    (enc): ModuleList(
      (0): GRU(100, 256, batch_first=True, bidirectional=True)
      (1): GRU(512, 256, batch_first=True, bidirectional=True)
    )
  )
)
DataParallel(
  (module): Style_classifier(
    (layers): ModuleList(
      (0): Linear(in_features=128, out_features=96, bias=True)
      (1): Linear(in_features=96, out_features=96, bias=True)
      (2): Linear(in_features=96, out_features=2, bias=True)
    )
  )
)
DataParallel(
  (module): DenseNet(
    (hidden_layer): ModuleList(
      (0): Linear(in_features=128, out_features=128, bias=True)
      (1): Linear(in_features=128, out_features=64, bias=True)
    )
    (output_layer): Linear(in_features=64, out_features=512, bias=True)
    (activation): LeakyReLU(negative_slope=0.2)
  )
)
DataParallel(
  (module): Style_classifier(
    (layers): ModuleList(
      (0): Linear(in_features=512, out_features=96, bias=True)
      (1): Linear(in_features=96, out_features=96, bias=True)
      (2): Linear(in_features=96, out_features=2, bias=True)
    )
  )
)
DataParallel(
  (module): DenseNet(
    (hidden_layer): ModuleList(
      (0): Linear(in_features=513, out_features=128, bias=True)
      (1): Linear(in_features=128, out_features=64, bias=True)
    )
    (output_layer): Linear(in_features=64, out_features=128, bias=True)
    (activation): LeakyReLU(negative_slope=0.2)
  )
)
DataParallel(
  (module): Decoder(
    (embedding): Embedding(60000, 100, padding_idx=0)
    (GRUCell): GRUCell(740, 256)
    (output_layer): Linear(in_features=256, out_features=60000, bias=True)
    (project): Linear(in_features=640, out_features=256, bias=True)
  )
)
DataParallel(
  (module): Domain_discri(
    (embedding): Embedding(60000, 100, padding_idx=0)
    (rnn): GRU(100, 256, batch_first=True, bidirectional=True)
    (dnn): Sequential(
      (0): Linear(in_features=512, out_features=200, bias=True)
      (1): ReLU()
      (2): Linear(in_features=200, out_features=2, bias=True)
    )
  )
)
------start training-------

----------------------------------------------------------------
|  Error: Your Job exited with error code 137
|         Likely reason: used too much memory, or ran too long
|         Note: mem limit=8.000G
|
|         Please run qacct -j 1575441 for more info
----------------------------------------------------------------
…
